model/pytorch.model (torch, 13911 bytes, 6 tensors)

layer1.weight f4 [50, 4]
0	0xbe6d8060	-0.23193502
1	0xbd52ba10	-0.051446974
2	0xbe8befa0	-0.27331257
3	0x3ef3bb52	0.47603852
4	0x3f03772e	0.5135373
5	0x3f18b6aa	0.59653723
6	0x3da435d8	0.080180824
7	0xbf1b3d20	-0.60640144
8	0xbe60df0c	-0.21960086
9	0xbedab072	-0.42712742
10	0x3dad27c8	0.08454853
11	0xbe3ac848	-0.18240464
12	0x3c4bd000	0.012439728
13	0xbec79428	-0.38980222
14	0xbef62eec	-0.48082674
15	0xbe43d8cc	-0.1912567
16	0x3e8ff7f2	0.28118855
17	0xbe38e008	-0.18054211
18	0xbeeeeeb6	-0.46666497
19	0xbee65da2	-0.4499331
20	0x3eb83d2e	0.35984176
21	0x3eadd7b8	0.33953643
22	0xbeeb349c	-0.45938575
23	0x3eaa55e2	0.33268648
24	0x3f0550c2	0.5207635
25	0xbda78873	-0.081803225
26	0xbeedcb71	-0.46444276
27	0xbd3bd4b1	-0.045857135
28	0x3dc73b50	0.0972811
29	0x3e32c7a8	0.17458975
30	0xbeb31009	-0.3497317
31	0xbea60cf6	-0.32431763
32	0x3e832a4b	0.25618204
33	0xbd95fa2a	-0.07323106
34	0x3dc0099d	0.093768336
35	0x3e9dfe2e	0.30857986
36	0xbec1fbdc	-0.37887466
37	0xbe7885a0	-0.24269724
38	0xbe3fdd0c	-0.18736666
39	0x3c6cef40	0.0144613385
40	0x3c14ec30	0.009089515
41	0x3f0921d0	0.5356722
42	0xbe448c85	-0.19194229
43	0xbe42fb48	-0.19041169
44	0xbe46d228	-0.19416106
45	0x3c1f1f3d	0.009712038
46	0x3ee34e5b	0.44395718
47	0x3e74e6f0	0.2391622
48	0x3d2daa80	0.04239893
49	0x3e1a098c	0.15042704
50	0xbee1e8ec	-0.44123018
51	0x3e8b6cbc	0.27231395
52	0xbea468a4	-0.32111084
53	0x3e0c4440	0.1369791
54	0xbe63e660	-0.2225585
55	0x3e7f3d3c	0.24925703
56	0x3e662a3e	0.22477052
57	0xbead0cfa	-0.33798963
58	0x3d3194d9	0.043354843
59	0x3efd60a0	0.49487782
60	0x3e4cad4c	0.19987983
61	0xbee33c4a	-0.44381934
62	0xbe935256	-0.28773755
63	0xbe779360	-0.24177313
64	0xbef7a816	-0.48370427
65	0xbde376d0	-0.11106646
66	0xbeb89a70	-0.36055326
67	0x3ea26516	0.31717747
68	0x3d897f81	0.067137726
69	0x3e85f5ca	0.26164085
70	0xbe47cb8b	-0.19511239
71	0xbd4a727e	-0.049425595
72	0xbd94c746	-0.07264571
73	0x3e8f2a37	0.27961895
74	0x3ee074b4	0.43839037
75	0x3e90877c	0.28228366
76	0x3e80d588	0.2516291
77	0x3effd14d	0.4996437
78	0x3e396ce2	0.18107942
79	0xbed3ea68	-0.41389775
80	0xbea77cba	-0.32712346
81	0xbea82ee6	-0.3284828
82	0x3dc242b0	0.09485376
83	0x3e81094e	0.2520241
84	0x3e326c09	0.17424025
85	0x3e252a09	0.16129316
86	0xbec4004d	-0.3828148
87	0x3e505e00	0.20348358
88	0x3e3b41c9	0.18286814
89	0x3cef50b6	0.02921329
90	0xbe304e72	-0.17217425
91	0xbe228d6e	-0.15874264
92	0xbd7d6290	-0.061861575
93	0x3dc784e8	0.09742147
94	0xbea2f0ba	-0.31824285
95	0xbef18af0	-0.47176313
96	0x3da038ce	0.07823335
97	0x3e894da3	0.26817045
98	0x3c9f9dda	0.01948445
99	0xbc291029	-0.010318794
100	0xbef47bca	-0.47750694
101	0xbee41a2c	-0.44551218
102	0x3ce5b0c0	0.028038383
103	0x3d52d270	0.05147022
104	0xbe0b4da0	-0.1360383
105	0xbeff10a2	-0.49817377
106	0xbe8fa632	-0.28056484
107	0xbef4c4be	-0.47806352
108	0xbea4b97c	-0.32172763
109	0x3e6ff062	0.23431543
110	0x3ec7b02b	0.39001593
111	0x3f0cd7ed	0.55016977
112	0xbee00108	-0.43750787
113	0x3d8e8ca8	0.06960422
114	0x3d221a60	0.039575934
115	0x3ddb1710	0.10697758
116	0xbe391ae3	-0.18076663
117	0x3ed89e39	0.42308214
118	0xbe105838	-0.14096153
119	0x3e6e2a78	0.23258388
120	0xbdd8ee10	-0.10592282
121	0x3d9d7be8	0.07689649
122	0xbec318d4	-0.3810488
123	0xbc5673c0	-0.01308912
124	0xbd25faa0	-0.040522218
125	0x3e91bcaa	0.28464252
126	0x3f025727	0.50914234
127	0x3ef6a6be	0.4817409
128	0xbe2eb1c4	-0.1706
129	0xbcd6b4e0	-0.026209295
130	0x3e0c1e60	0.13683462
131	0x3e480dc4	0.19536501
132	0xbed2e426	-0.41189688
133	0x3e51fbb0	0.20506167
134	0xbdb1a048	-0.08673149
135	0x3ed582b0	0.4170127
136	0x3ea1cac0	0.31599998
137	0xbebec1eb	-0.37257323
138	0x3ee5b21b	0.44862446
139	0x3d1fe2d2	0.039034672
140	0xbef58ad2	-0.47957474
141	0x3d7fd070	0.06245464
142	0xbcf36f20	-0.029716074
143	0xbeb9697e	-0.36213297
144	0xbea5ee46	-0.3240835
145	0xbe9b5bba	-0.3034342
146	0x3e61ccd8	0.22050798
147	0xbed6a8bc	-0.4192561
148	0xbd0bb380	-0.03410673
149	0xbefce2ec	-0.49391878
150	0xbe84bfe8	-0.25927663
151	0x3e02343c	0.12715238
152	0xbeedc34a	-0.46438056
153	0x3ed73160	0.42029858
154	0xbd719a50	-0.058985054
155	0xbdddfe88	-0.108395636
156	0x3eaa6fba	0.33288366
157	0xbef262ce	-0.47341007
158	0xbe7a0af4	-0.24418241
159	0xbd6346b0	-0.055487335
160	0x3ef4ddd7	0.478255
161	0xbe840f84	-0.25793087
162	0xbe1d5a7f	-0.15366553
163	0x3ecb8ef0	0.3975749
164	0x3d9bd624	0.076092035
165	0x3ed6215c	0.41822326
166	0xbe8b417a	-0.27198392
167	0x3eea5e15	0.45774904
168	0xbec1302c	-0.37732065
169	0x3e8fc278	0.28078055
170	0xbed84d16	-0.42246312
171	0x3e63f088	0.22259724
172	0xbdaa062c	-0.083019584
173	0x3eebc76a	0.46050578
174	0xbcedfd17	-0.029051347
175	0x3ea1f6ff	0.31633756
176	0xbe43b7fd	-0.19113155
177	0x3eaef16c	0.34168565
178	0x3f0dae52	0.55344117
179	0x3eb45d04	0.35227215
180	0xbea0a2e2	-0.3137427
181	0x3e632540	0.22182178
182	0x3dbb6708	0.09150511
183	0x3d1a2640	0.037634134
184	0x3f154e22	0.58322346
185	0x3eebea6a	0.4607728
186	0x3e4df750	0.20113873
187	0xbef81d49	-0.48459843
188	0x3d3ebe00	0.046567917
189	0xbda42665	-0.08015136
190	0x3e903357	0.2816417
191	0x3e8ffc2e	0.28122085
192	0x3eaf033c	0.34182155
193	0x3d036a9e	0.0320841
194	0x3f0dab5b	0.5533959
195	0x3dc9de0a	0.09856804
196	0xbd86bab8	-0.065785825
197	0x3dd2cbd8	0.10292786
198	0xbe65c588	-0.22438633
199	0x3ea05a90	0.31319094

layer1.bias f4 [50]
0	0xbe886600	-0.2664032
1	0xbe943678	-0.28947806
2	0xbe5ca318	-0.2154659
3	0xbd41c6a0	-0.047308564
4	0xbee40980	-0.44538498
5	0x3ec77be3	0.38961706
6	0xbe399277	-0.18122278
7	0x3f02599b	0.5091798
8	0xbdc95f0c	-0.09832582
9	0x3b311c00	0.0027024746
10	0x3d57dd66	0.052701376
11	0x3e891b7f	0.2677879
12	0xbef336de	-0.47502798
13	0x3ddf5c88	0.10906321
14	0xbe858a4f	-0.26082084
15	0x3ebd7256	0.37001294
16	0x3dec4908	0.11537367
17	0x3e826ed6	0.25475186
18	0xbe8644b4	-0.2622429
19	0xbe7546a6	-0.23952731
20	0x3eab2c96	0.33432454
21	0x3e9a7278	0.30165458
22	0x3e5ad294	0.21369392
23	0xbe0ec12c	-0.13940877
24	0xbef7ce0a	-0.48399383
25	0xbeaf9e64	-0.3430053
26	0x3ea28122	0.31739146
27	0xbd8561c7	-0.0651279
28	0x3e8ae6de	0.27129263
29	0x3e8b4c30	0.27206564
30	0x3e0508a4	0.12991577
31	0x3dd77901	0.105211265
32	0xbe55fa20	-0.20896196
33	0xbe8ab322	-0.27089792
34	0x3ec757c4	0.38934147
35	0x3ec53346	0.3851568
36	0xbde757a0	-0.1129601
37	0xbe19c0d8	-0.1501497
38	0xbecc8ba4	-0.39950287
39	0xbee58796	-0.44830006
40	0x3f0bec3a	0.5465733
41	0x3ea32ebc	0.31871593
42	0xbe05c0e0	-0.13061857
43	0xbe8f2f32	-0.27965695
44	0xbc6c7a88	-0.014433511
45	0xbeba75a4	-0.36417878
46	0x3f0042a4	0.50101686
47	0x3e4c35fa	0.19942465
48	0xbef1e0ad	-0.47241727
49	0xbdbedd50	-0.09319556

layer2.weight f4 [50, 50]
0	0xbda288c4	-0.07936242
1	0x3de5d02c	0.11221346
2	0xbdbf16da	-0.093305305
3	0x3d6dbce0	0.058041453
4	0xbbb2baa0	-0.0054543763
5	0xbb2c0b05	-0.0026251685
6	0x3e191b0f	0.14951728
7	0xbd71e419	-0.05905542
8	0xbd87a812	-0.06623854
9	0xbd9efe8e	-0.07763396
10	0x3e3d64b4	0.18495446
11	0xbdbe0bed	-0.092796184
12	0xbe0d5c8d	-0.13804837
13	0x3ce758b8	0.028240547
14	0xbd882572	-0.06647767
15	0x3c7a2640	0.015267909
16	0x3d0a95f8	0.033834428
17	0x3e39c79c	0.18142551
18	0x3cd361ce	0.025803473
19	0xbd6896ca	-0.05678443
20	0x3d860acc	0.06545028
21	0x3dd63da5	0.104609765
22	0x3e22178e	0.15829298
23	0x3cbc0700	0.022952557
24	0x3cfec2d4	0.03109876
25	0xbbf95d60	-0.007610008
26	0x3cbcd288	0.023049608
27	0x3cecec80	0.028921366
28	0x3de73f02	0.11291315
29	0xbd6eda9d	-0.058313955
30	0x3db3f8f8	0.087877214
31	0x3ba2c56c	0.004967382
32	0xbdf8ec80	-0.12154484
33	0x3dca3938	0.09874195
34	0xbdc6b9a1	-0.09703375
35	0x3df797b2	0.120894805
36	0x3d6fe3b8	0.05856678
37	0x3b8e6c00	0.0043463707
38	0xbbecf720	-0.007231608
39	0x3d0c6a34	0.03428097
40	0x3d2e808d	0.042603064
41	0x3d664177	0.056214776
42	0xbda6343e	-0.08115433
43	0x3d714e94	0.05891283
44	0x3c40be68	0.011764146
45	0x3e00087b	0.12503235
46	0xbdf2be4e	-0.11852704
47	0xbd416a27	-0.047220375
48	0x3d954930	0.0728935
49	0x3d7b1998	0.061303705
50	0xbd6c3b86	-0.057673953
51	0xbdc6d8ee	-0.09709345
52	0xbd0532e6	-0.032519244
53	0x3d0285c8	0.031865865
54	0x3d87a858	0.06623906
55	0xbde381fe	-0.111087784
56	0xbd33ba62	-0.04387892
57	0xbd32e7c4	-0.04367806
58	0xbd35a83a	-0.044349886
59	0xbcf4442c	-0.029817663
60	0x3d278298	0.04089603
61	0x3cb24e38	0.021765813
62	0x3ddc06de	0.10743497
63	0x3ced2820	0.028949797
64	0xbdc9eaaa	-0.09859212
65	0xbcec6764	-0.028857894
66	0xbd234f24	-0.039870396
67	0xbdda6843	-0.106644176
68	0x3d52697c	0.05137013
69	0x3c3cbd60	0.01151976
70	0xbe00c3a3	-0.1257463
71	0xbe0c4676	-0.13698754
72	0xbd903ce3	-0.07042863
73	0xbdcb14ee	-0.099161014
74	0x3d603f68	0.05474797
75	0xbd677386	-0.056506656
76	0x3d8e0d3c	0.06936118
77	0xbe0d53cc	-0.13801497
78	0xbd4578f6	-0.04821106
79	0xbd03a54c	-0.03214006
80	0x3e020c0f	0.12699912
81	0xbd1e0cb8	-0.03858635
82	0xbdc00c60	-0.0937736
83	0x3c5e9e60	0.013587564
84	0x3d022bf4	0.0317802
85	0xbdb47100	-0.088106155
86	0xbda7e7be	-0.08198498
87	0x3ab10d80	0.0013508052
88	0x3dd69b68	0.1047886
89	0xbb97e6a0	-0.004635647
90	0x3d6ba3d4	0.057529286
91	0x3e0343c1	0.12818815
92	0xbd05b1b0	-0.03264016
93	0x3e027c7f	0.12742804
94	0xbe050343	-0.12989525
95	0x3bf62860	0.0075121373
96	0xbbdeb280	-0.006796181
97	0xbd9e0c0b	-0.07717141
98	0x3db3d4fe	0.087808594
99	0xbd6b9f52	-0.057524987
100	0xbdfeefcd	-0.12448082
101	0x3dd2fed8	0.10302514
102	0x3bc07be0	0.005874142
103	0xbdac105c	-0.08401558
104	0xbddb5818	-0.10710162
105	0x3d5a8104	0.053345695
106	0xbccd8e94	-0.0250924
107	0xbd67c09c	-0.05658017
108	0xbddda7c0	-0.108230114
109	0xbc8f9ac4	-0.017529853
110	0xbe052e42	-0.13005927
111	0x3dcec66c	0.1009644
112	0x3dcd1fa6	0.10015802
113	0x3bd3f320	0.0064681917
114	0xbdc6853e	-0.09693383
115	0x3dac06fc	0.0839977
116	0xbc8c97e8	-0.017162278
117	0xbde44973	-0.11146822
118	0xbe0a9891	-0.13534762
119	0xbe02a4a7	-0.12758122
120	0x3d13edc8	0.036115438
121	0xbd560928	-0.052254826
122	0x3ccf0a08	0.025273338
123	0xbd8cf893	-0.06883349
124	0xbe0fb639	-0.14034356
125	0xbe077f68	-0.13232195
126	0x3d3c9a74	0.046045735
127	0x3e084925	0.13309152
128	0xbd02ab1e	-0.03190147
129	0x3d6ce998	0.05783996
130	0xbdf72e6e	-0.12069403
131	0x3ca55e48	0.020186558
132	0x3dafe8e4	0.08589342
133	0x3dac3ad6	0.084096596
134	0xbd5e9b3a	-0.054347254
135	0x3dc12928	0.09431678
136	0x3dc73c6c	0.097283214
137	0x3d2f0648	0.0427306
138	0x3e03ee75	0.12883933
139	0xbd5db9c4	-0.054132238
140	0x3d94cd64	0.07265738
141	0x3dbd3fa4	0.09240654
142	0x3dbde10c	0.0927144
143	0xbd6a8e8e	-0.057264857
144	0xbd6d5122	-0.057938702
145	0x3dc98d96	0.098414585
146	0xbc9ae2d8	-0.018906996
147	0x3d2d0f70	0.04225105
148	0x3c18f1e0	0.009335011
149	0xbc3db850	-0.011579588
150	0xbc1d1140	-0.009586632
151	0xbe0e06c7	-0.13869773
152	0x3c3dafd0	0.0115775615
153	0xbdb65b51	-0.08904136
154	0x3d70b680	0.058767796
155	0x3dd8f6ee	0.10593973
156	0xbd5b3252	-0.053514786
157	0x3d63323c	0.05546783
158	0xbe0a552b	-0.13509052
159	0xbdfc9ef4	-0.123350054
160	0x3dc88038	0.09790081
161	0x3dfee12a	0.124452904
162	0xbdb79bfb	-0.08965298
163	0x3ddf8f16	0.10915963
164	0x3d223e10	0.03960997
165	0xbc81f098	-0.015861794
166	0x3d084664	0.033270255
167	0x3dd0426c	0.10168919
168	0xbe09fd62	-0.13475564
169	0xbda25d32	-0.07927932
170	0xbdd514e2	-0.10404374
171	0x3d7edeb4	0.062224105
172	0x3d729e08	0.05923274
173	0xbd9b4303	-0.07581141
174	0xbe061f24	-0.13097817
175	0x3d6dec78	0.058086842
176	0x3dfb1d62	0.12261464
177	0xbdbbb3e7	-0.09165173
178	0xbdaeb6c5	-0.08530954
179	0xbc942fd4	-0.018089212
180	0xbd4f9760	-0.05068147
181	0xbd1c7d48	-0.038205415
182	0xbd67ebb2	-0.05662126
183	0xbdd279c0	-0.10277128
184	0x3db559ce	0.088550195
185	0x3d7da150	0.061921418
186	0x3d6572fc	0.05601786
187	0xbddf15f8	-0.10892862
188	0x3dab2c26	0.0835803
189	0xbb1a5540	-0.0023549348
190	0xbe103dde	-0.140861
191	0x3d7e040c	0.06201558
192	0x3d7770ec	0.060410425
193	0xbda13ced	-0.07872949
194	0x3db12f8a	0.086516455
195	0x3dd4f4ae	0.103982314
196	0xbe0cd59a	-0.13753358
197	0xbd1e40ce	-0.03863602
198	0x3d848aa2	0.064717546
199	0xbd1a188e	-0.037621073
200	0xbd8348f9	-0.06410403
201	0xbd02a5b6	-0.031896316
202	0xbdd0c5ac	-0.10193953
203	0x3dc14eae	0.09438835
204	0xbdd69b09	-0.10478789
205	0xbc89ef6c	-0.016837798
206	0x3d22f080	0.03978014
207	0x3d930faa	0.07180722
208	0xbccd1204	-0.025033005
209	0xbde92e40	-0.113857746
210	0x3d0994a4	0.03358902
211	0xbd3956d0	-0.045248806
212	0x3d15a658	0.03653559
213	0xbbf76b20	-0.007550612
214	0xbdc3ef76	-0.09567158
215	0xbd30d5b0	-0.04317254
216	0xbdf829b8	-0.12117332
217	0xbe0d6f52	-0.13811997
218	0xbd45031e	-0.048098676
219	0xbd9c94c3	-0.076455615
220	0xbd5d72aa	-0.05406443
221	0xbc9dc1f4	-0.019257523
222	0x3d7f7894	0.06237085
223	0x3d364da8	0.044507653
224	0xbdf19eaa	-0.11797841
225	0xbd01c754	-0.031684235
226	0xbd5bfd10	-0.053708136
227	0xbcce6c9c	-0.025198273
228	0xbc4d7480	-0.012539983
229	0x3db15b0a	0.086599424
230	0x3de1132e	0.10989986
231	0xbd2722f2	-0.04080481
232	0x3d83c034	0.06433144
233	0xbccfaa04	-0.025349624
234	0x3dad490c	0.08461198
235	0xbde0534d	-0.10953388
236	0x3de7a7a2	0.1131127
237	0x3d6494d8	0.05580601
238	0x3d1032d0	0.03520471
239	0xbd53ed7a	-0.051740147
240	0x3c4ff070	0.012691602
241	0xbd19ef74	-0.037581876
242	0xbdb1eda1	-0.08687902
243	0xbe0e5da1	-0.13902904
244	0xbddea4f0	-0.10871303
245	0x3de29bca	0.11064871
246	0x3d5cca68	0.053903967
247	0x3cd4ebe8	0.025991395
248	0xbe0c0a99	-0.13675918
249	0x3ddbec86	0.10738473
250	0xbda55619	-0.080730624
251	0x3d656cca	0.056011952
252	0xbda5b564	-0.08091238
253	0x3ca37610	0.019953758
254	0x3c5e8e50	0.013583735
255	0x3e152d1e	0.14567992

layer2.bias f4 [50]
0	0xbdeff697	-0.11716955
1	0x3e040b1f	0.12894867
2	0xbe07783e	-0.13229463
3	0x3ac28a80	0.0014842302
4	0xbc938aac	-0.01801046
5	0x3e2ad424	0.16682488
6	0xbca3b718	-0.019984767
7	0xbc7ec747	-0.015550441
8	0x3c16c39f	0.009201913
9	0xbe0ef49c	-0.13960499
10	0x3dec8412	0.11548628
11	0xbe075b2c	-0.13218373
12	0x3e0a821d	0.13526197
13	0xbd574068	-0.052551657
14	0xbe58df8f	-0.21179031
15	0x3e5b277d	0.21401782
16	0xbb98982a	-0.0046568112
17	0x3dada82e	0.08479343
18	0xbd23dce0	-0.040005565
19	0xbdac5933	-0.08415451
20	0xbd27fcef	-0.0410127
21	0xbd62e326	-0.055392407
22	0x3e14e5bd	0.14540763
23	0x3d6e4acc	0.0581768
24	0xbc9734e5	-0.01845784
25	0xbe02f93a	-0.12790385
26	0x3b860c83	0.004090847
27	0xbd52f789	-0.0515056
28	0xbdf77d07	-0.12084394
29	0x3e41ff23	0.18944983
30	0x3db13f99	0.086547084
31	0x3dcd1da2	0.10015418
32	0xbcfb9f0a	-0.030715484
33	0x3dc27849	0.09495599
34	0x3d40b73f	0.047049757
35	0x3e01cd97	0.12676083
36	0x3dd87e20	0.105709314
37	0xbd8cf324	-0.06882313
38	0x3e1e8159	0.1547903
39	0x3dca1e75	0.098690905
40	0x3d297250	0.041368783
41	0x3e445254	0.1917203
42	0x3bcaa3f2	0.0061840946
43	0x3d8d891a	0.06910916
44	0xbcb098ba	-0.0215572
45	0xbd6cbc80	-0.057796955
46	0x3dc3fef0	0.0957011
47	0x3e0b436d	0.1359994
48	0x3d627d5c	0.055295333
49	0x3ca46db0	0.020071834

layer3.weight f4 [3, 50]
0	0x3cc392fc	0.023873799
1	0x3dea9f6a	0.11456187
2	0xbd23b69c	-0.03996907
3	0xbd256918	-0.04038343
4	0x3d3869d8	0.045022815
5	0x3e24df8f	0.16100906
6	0x3e55a4fe	0.20863721
7	0xbe18216a	-0.14856496
8	0xbe5f7408	-0.21821606
9	0xbe1b45f0	-0.15163398
10	0x3da1a930	0.07893598
11	0x3de2929e	0.11063121
12	0x3daf03e4	0.08545664
13	0xbdb7b243	-0.089695476
14	0xbd860312	-0.06543554
15	0x3dce1cdd	0.10064099
16	0xbdd75509	-0.10514266
17	0x3dfd1c92	0.12358965
18	0x3e3400e9	0.17578472
19	0x3e4bb853	0.19894533
20	0xbe328c9d	-0.17436452
21	0x3ddd8938	0.10817188
22	0x3dd88e16	0.10573976
23	0x3cbec418	0.023286864
24	0xbdc0641b	-0.093940936
25	0xbd39c89a	-0.045357324
26	0xbe2a2edb	-0.16619436
27	0x3d1d6045	0.038421888
28	0xbdd1afe1	-0.10238624
29	0x3d95d763	0.073164724
30	0xbe579e36	-0.21056446
31	0x3e4d66ec	0.20058793
32	0xbdb6abce	-0.08919488
33	0xbda0879e	-0.07838367
34	0x3dcba8c0	0.09944296
35	0x3dc720ea	0.09723075
36	0xbd094692	-0.033514567
37	0x3e4cfb8e	0.20017835
38	0x3e38e936	0.18057713
39	0x3df8fb80	0.12157345
40	0x3e5f5ffd	0.2181396
41	0x3dc60de5	0.09670619
42	0x3e46e4fb	0.19423287
43	0xbe0a2152	-0.13489273
44	0x3df49cc3	0.119439624
45	0xbd43ea2a	-0.047830738
46	0x3cb11638	0.02161704
47	0x3db78984	0.08961776
48	0x3dac064a	0.08399637
49	0xbd8ba1cc	-0.0681797
50	0xbe304cb1	-0.17216755
51	0xbdd018df	-0.10160994
52	0x3da3ca1c	0.07997534
53	0xbe0826f3	-0.13296108
54	0x3cd33318	0.0257812
55	0x3e066033	0.13122635
56	0xbd986bcc	-0.074424356
57	0xbdf09423	-0.11747005
58	0x3df3c700	0.119031906
59	0xbd57a4e7	-0.052647498
60	0xbc8fee60	-0.01756972
61	0xbda2c6b2	-0.079480544
62	0x3d4ed8b4	0.050499633
63	0x3dd265b8	0.102733076
64	0xbd3c8737	-0.04602739
65	0xbc09cf44	-0.008411232
66	0x3e20853e	0.15675828
67	0x3ce07de8	0.027403787
68	0xbd953166	-0.07284813
69	0xbe007f13	-0.12548475
70	0x3db8423b	0.089970075
71	0x3c4369a0	0.011927038
72	0x3e6bf720	0.2304349
73	0x3e035489	0.12825216
74	0x3d9f2354	0.0777041
75	0xbdf99f68	-0.121886075
76	0xbd509766	-0.050925635
77	0x3d9068d4	0.070512444
78	0x3d1f0a5d	0.038828243
79	0x3d6e804f	0.058227833
80	0x3dbf4398	0.09339064
81	0x3d2786fa	0.040900208
82	0xbe3d6911	-0.18497111
83	0x3cc33a08	0.023831382
84	0x3ddf5ec5	0.10906748
85	0x3d8e353c	0.069437474
86	0x3cf5f438	0.03002368
87	0xbd72cc4e	-0.05927687
88	0x3e7bca12	0.24588802
89	0x3da4b680	0.080426216
90	0xbe3e09d2	-0.18558434
91	0xbdb8ae95	-0.09017674
92	0x3d170f8f	0.036880072
93	0xbd629372	-0.055316396
94	0x3e38fc0a	0.18064895
95	0xbd96d0bb	-0.07364031
96	0xbdb383f1	-0.087654
97	0xbd925b19	-0.07146282
98	0xbe0e7ef1	-0.13915612
99	0x3c0929a0	0.008371741
100	0x3d614f2f	0.055007156
101	0xbce54460	-0.027986705
102	0x3d9cfc76	0.076653406
103	0xbd9fa1ee	-0.077945575
104	0x3dfe5de6	0.124202535
105	0xbd940763	-0.072279714
106	0x3cf18fb3	0.029487466
107	0x3e6b1d6d	0.22960444
108	0x3cd1f97e	0.025631662
109	0x3e487179	0.19574536
110	0xbd5b0780	-0.05347395
111	0x3dee4292	0.11633791
112	0x3d99e400	0.07514191
113	0xbc2dfa40	-0.010618746
114	0x3e464076	0.19360527
115	0xbe024bec	-0.12724274
116	0x3dca5e16	0.09881227
117	0x3d833f4c	0.06408557
118	0x3ddc6a49	0.1076246
119	0xba5e633e	-0.0008483416
120	0x3e47436f	0.19459318
121	0xbd48da36	-0.049036227
122	0x3a6a33f6	0.00089341344
123	0x3caf0a20	0.021367133
124	0x3d872faa	0.06600888
125	0xbdb9b507	-0.09067731
126	0x3db8dc1f	0.0902636
127	0x3b14b371	0.0022689963
128	0x3def7b36	0.116934225
129	0xbe2d1dae	-0.16905853
130	0x3e68bfa8	0.22729361
131	0xbe5404cc	-0.20704955
132	0x3e707447	0.23481856
133	0x3dabf9d4	0.0839726
134	0x3df79951	0.1208979
135	0x3d9cb918	0.07652491
136	0xbde6f21a	-0.11276646
137	0xbc797a28	-0.015226878
138	0xbdf0eeba	-0.117642835
139	0xbdff3f8d	-0.12463293
140	0xbdc28ae9	-0.09499151
141	0xbe35b08b	-0.17743127
142	0xbe3e6359	-0.18592586
143	0x3e2a810b	0.16650788
144	0xbdf838e2	-0.121202245
145	0xbc0e3d60	-0.008681625
146	0xbdee92c9	-0.11649091
147	0xbddf2c06	-0.10897069
148	0x3d99af5a	0.07504149
149	0xbdb1959a	-0.08671112

layer3.bias f4 [3]
0	0x3e1f2fc7	0.1554557
1	0x3e1cd695	0.15316232
2	0x3ccf1b36	0.02528153
